dom2/w2v-W.npy (npy, 20128 bytes, 1 tensors)

array f8 [50, 50]
0	0xbfba0b06765feda8	-0.10173073186881842
1	0x3fcb1ed5000f7263	0.21187841895052192
2	0x3fc105d2f142b8e4	0.13299023418716793
3	0xbfee053396fa1411	-0.9381349514739005
4	0x3fdd769bb01cadd0	0.4603642673343673
5	0x3fc5b0c963bcb685	0.16945760126093404
6	0xbfbec19a18513348	-0.12014163106614462
7	0xbfc5198b859eca08	-0.16484207176615961
8	0x3fd76c0a4daf074a	0.36596925340937914
9	0x3fe6f5343a37800d	0.7174321305319623
10	0x3ff0f44142ce158a	1.059632550198645
11	0x3fe524d700325a01	0.6607470516053696
12	0x3fe3b6bb9a0fd01b	0.616056252385991
13	0x3fd437ce23597f28	0.31590608074292215
14	0xbfd30d17b5361344	-0.29767410942468
15	0x3fd1db6e337f7d83	0.2790179732237094
16	0xbfc7814dd165341a	-0.1836335442007176
17	0x3fcf37028513dc0a	0.24386626718452958
18	0xbff1bb9d8150bb21	-1.1083045054799145
19	0xbfed6ac747be3030	-0.9192844773510895
20	0x3fd6b93efa44bd64	0.3550565189388719
21	0xbfe473cca7fa136f	-0.6391356735990551
22	0xbfcdcb25badec72b	-0.23276206612131864
23	0xbfc6b3001382cc14	-0.17733765556985814
24	0x3fdc069188cef329	0.437900909044219
25	0x3fdfc2b80d4a29f3	0.4962597017080547
26	0x3fe9210416e49bb7	0.7852802703026701
27	0xbfe4e957c5c1d9b1	-0.653484235996805
28	0xbfcc92f327947054	-0.22323455269440962
29	0x3fd85a752559d103	0.3805210938219405
30	0x3fe25dc7e834597e	0.5739478621715504
31	0xbfdbb427bb25c0b8	-0.43287080074425033
32	0x3fc8c71c8e529e7d	0.19357640218116848
33	0xbfbbe4a3f86f496e	-0.1089575273065628
34	0x3fe7c26ea1376e70	0.7424843930015879
35	0x3fe2a66b40793aad	0.5828148135422758
36	0xbfd93d56963fef76	-0.39436878846003454
37	0x3f80d4cd610a25b5	0.008218388103403787
38	0x3fbeef8b558c9663	0.12084265555002953
39	0xbfe77f8bd58c3fcb	-0.7343196078163542
40	0xbfdb6b6204c133c1	-0.42842913116765763
41	0x3fe4481c7a27f43e	0.633802641473842
42	0xbfe1b68471cefa7e	-0.5535299513647514
43	0xbfa21b610501f1c2	-0.03536513506057616
44	0xbf935c1c56bc1483	-0.018906061929574235
45	0xbfe4155c06c7b671	-0.6276073582100264
46	0xbfc9926d63426f30	-0.19978110644012181
47	0xbfd680d6effd9a38	-0.3516137450846233
48	0xbfd136ca09ca40ed	-0.26896906810817606
49	0x3fd367536c622d42	0.30318151077581856
50	0xbfc078838109ab1d	-0.12867778587982395
51	0xbfd33582ac160518	-0.30014101796412396
52	0x3fda78b92decfbb9	0.41361836895878984
53	0x3fe5e3a8af4d3924	0.684040396104852
54	0xbfe1d929d3c6ae4f	-0.5577592025997066
55	0xbfd02dcf73647213	-0.2527960421446391
56	0x3fd4bbe7ac007043	0.32396880909960063
57	0x3fd48ef7cb9f9c66	0.3212260712156819
58	0xbf95fa7b1b9040d2	-0.02146332126363932
59	0xbfdf64ff76cc29d9	-0.49053942300147707
60	0xbfe036679d09c4d9	-0.5066412036086617
61	0xbfe757287221fcc6	-0.729389403262666
62	0xbfc3ef4e021024af	-0.15574050045714702
63	0xbfae1887dac46009	-0.05878090425011357
64	0x3fcc71f39ae8de2a	0.2222275263209082
65	0x3fd0f84ec81f729d	0.26515550177809094
66	0x3fd6da4c9b9097fe	0.35707392875553967
67	0xbf9db4f3341d54f9	-0.02901058202345028
68	0x3fe9367c40293243	0.7879010441916495
69	0x3fe689485da3fa5a	0.704258139506986
70	0x3fa2495f38a715a1	0.03571603361664733
71	0x3fdadfdaf3364f9f	0.4199130416029621
72	0x3fc6f70c537cdc68	0.17941431118535722
73	0x3fd0a983a5cf95ea	0.26034632866352914
74	0x3fca1cdae03f5946	0.20400558423598109
75	0xbfd5ee0cde2c0c09	-0.3426544351243029
76	0xbfe1e43f426f1e90	-0.5591121957340466
77	0x3fbeb32703dad067	0.11992114872083591
78	0x3fd0e00ec7c068dd	0.2636753988932819
79	0xbfca34461302a5bb	-0.20472026756514858
80	0xbfd52bf135060eeb	-0.3308070199784498
81	0x3fc5a6388b7d51fc	0.16913515864384
82	0xbfc787ad3ca7a7d0	-0.18382802449860813
83	0x3fb66b36ea4d0370	0.08757346363291929
84	0xbfdc825bd45a7704	-0.44545646417269347
85	0xbfdac21e69d4ff19	-0.41809807143362004
86	0x3fd021ec2352289b	0.2520704598360994
87	0x3fb72fdfecfcbde4	0.0905742600996216
88	0xbfd17dba6737e0c8	-0.27329883651647124
89	0x3fdd5afff5484fcc	0.45867918923727014
90	0x3fe25c0a47cb18f4	0.5737353708471162
91	0xbfe45883cbb22825	-0.6358050325809513
92	0x3fe00d563f5c60de	0.5016280400768911
93	0x3fc18c03d3b4a81f	0.13708541714851294
94	0xbfb7f2ab5006a33a	-0.09354658797986995
95	0x3fcacb73459c04b9	0.20933380984209807
96	0x3fd7661db7c4272f	0.3656076712219258
97	0x3fdb0dceb56f6fbb	0.42271774023333436
98	0x3fc0b43fb1c9a656	0.1305007570365883
99	0xbfbc43e16aeeb001	-0.11041077480939522
100	0x3fb48f76e95aa6ea	0.08031409451600849
101	0xbfec06a641fc707e	-0.875811699751935
102	0x3fd9cf781190d320	0.40328790393259517
103	0xbfba5abad30a18e9	-0.10294692661600248
104	0xbfc5af9ebe4564a9	-0.16942199984149411
105	0x3fd0140d7bfefe19	0.25122391804686256
106	0xbf066c2f23e3b140	-4.276770458652929e-05
107	0xbfc30d7625308b25	-0.1488483125295598
108	0x3fc17467cf459e5b	0.13636491413784566
109	0xbfe7965a8bf08c46	-0.7371037228771307
110	0x3fb5bb84e950ecbd	0.08489256569093846
111	0xbfd7100d22275c12	-0.36035469374968543
112	0xbfd133429dd64c04	-0.26875367559222263
113	0xbf7d0af233f1d842	-0.00709051714431125
114	0x3fd120c9eccc943a	0.2676262676707811
115	0xbfb128770569545c	-0.06702369577517814
116	0xbfb36ab6ad30148c	-0.07584707000940422
117	0xbfa172f59ff7fbe9	-0.034080196168353734
118	0x3fd84ef023cd6713	0.3798179959900249
119	0x3fc568c4d856177a	0.1672597938851899
120	0xbfe9f702b1ee2767	-0.8114026522828056
121	0x3fce30353b95343d	0.23584618958776274
122	0xbfdc346b097d9926	-0.44069934775179076
123	0x3fa4799e34d63b6d	0.039990371656236735
124	0x3fd4772f8f0fa797	0.3197745225030472
125	0xbfd0b5ae7f1b009a	-0.2610889664902146
126	0x3fd04497f584e4f8	0.25418662048794216
127	0xbfb8b0554274225e	-0.09644062874225187
128	0x3fbed7a60c97a6e6	0.12047803695136458
129	0x3fe1c973335fd5e6	0.5558410647778913
130	0xbfe56529cba7be76	-0.6685990312234498
131	0x3fd670bdbe502a7d	0.35063117585438147
132	0xbfc3a93ccbce087b	-0.15360221816451144
133	0x3fe080a135ae5138	0.5157018707709886
134	0xbfc08e3e6ec19465	-0.1293409386445631
135	0xbfd834bbbc989cd3	-0.3782185880431374
136	0xbfd8071890fbfa88	-0.3754331031667921
137	0x3fc54e0b96ddc35d	0.16644425264851295
138	0xbfd3dc1ac6fb0e5e	-0.31030911857326327
139	0xbfaea2abad57e57c	-0.05983482829101214
140	0x3fd24ede321c6a1f	0.28606371778156076
141	0x3fdf58b44d24b4a4	0.4897890809396108
142	0x3fded6fec2a28f8e	0.4818722630245639
143	0xbfc8d153281d6121	-0.19388808687905004
144	0xbfd2c1679c9850b1	-0.2930544881103386
145	0xbfd5be60958f43cc	-0.3397447071593518
146	0x3fe88f356c62e164	0.7674815289420107
147	0xbfc23641cc3ff991	-0.14228079293384302
148	0x3fd280713ab2b4ad	0.2890894959662756
149	0x3fc7407271d0fb7f	0.18165426785887104
150	0x3fca10810d002b11	0.2036286653022548
151	0xbfd71c89c6f01e5f	-0.3611168329957532
152	0xbfa7a657ab9c6d3b	-0.04619096727238988
153	0xbfd4b0d466bdf4fe	-0.3232928279247317
154	0xbfb96a91fafd4121	-0.09928238275211189
155	0x3fe4b928881f8651	0.6476023348479406
156	0x3fc71d86020700ae	0.18058848475448513
157	0xbfe4aa0aaea77019	-0.6457570468151089
158	0xbfb09ad7807d161e	-0.06486269843033951
159	0xbfa3d639fe274f91	-0.03874379374943183
160	0x3fc9fd19a0f48739	0.20303650244846397
161	0x3fe6512f0343a9c7	0.6974101127391855
162	0xbfd7d5335cb99724	-0.37238773398563496
163	0xbfcd2a0579599600	-0.2278448908356694
164	0x3fe388c43d4fcc27	0.6104451367849649
165	0xbf82d94867cd65b2	-0.009203496616168792
166	0xbfb6bbacfa5c646a	-0.08880120384528004
167	0x3fc2234d80e4a170	0.14170235437019185
168	0xbfe1fc4431253849	-0.5620442352171803
169	0x3fe2194e4bd8d40d	0.5655890923868597
170	0xbfe2dabcb8f2522c	-0.5892013180005669
171	0xbf58477695c780c4	-0.0014818819100739658
172	0xbfd447769131dbf6	-0.3168617647092441
173	0xbfd66aebe8f6f6fb	-0.35027597189387877
174	0xbfd0677e0c736505	-0.25631667343039083
175	0xbfc59f45052e1334	-0.1689230227749704
176	0x3fd8db6c2634f0c2	0.3883924840081471
177	0x3fee78b8dbdddcba	0.9522365850706571
178	0xbfdee21f37d247dd	-0.48255138827619054
179	0xbfba9d2d4197ca13	-0.10396082736387084
180	0x3fd79dbb0f47b5ae	0.36900211803625893
181	0x3fe7f729a60c445a	0.7489212267993353
182	0x3fbe4617e28ac00c	0.11825703888712286
183	0xbfb88f2620c5fc88	-0.09593427944308719
184	0x3fd29c1c222efaa7	0.2907781919310914
185	0xbfd7d0fcfa76c78f	-0.37213062724469465
186	0xbfd0cd28c28bb384	-0.26252192495922366
187	0x3fe3f2987cce425c	0.6233637273417787
188	0xbf55360f23a260f5	-0.0012946269839969025
189	0xbfd03dd553925002	-0.2537740055206542
190	0xbfe1d6d031706e4d	-0.5574723210915608
191	0xbfa84f58f06e2232	-0.04748037276209906
192	0xbfc65a0c64df51ea	-0.17462305951507
193	0x3fb25a619cc6af6e	0.07169160916845183
194	0xbfd5d52c23f51248	-0.3411360121865852
195	0xbfc9c3883371fc6f	-0.201279664153819
196	0x3fdcb196565f09d3	0.44833906588260425
197	0xbfccaf4c1a5da00f	-0.22409964835537763
198	0x3fc75ec2d35a3395	0.18257937736453003
199	0xbfd1e1a5955fce4e	-0.27939738833740513
200	0x3fbca13f6515463d	0.11183544366692728
201	0x3fdfc73b9de337c9	0.49653520983417515
202	0xbfe52d055cac39ba	-0.6617457208647501
203	0xbfd4009b900ad27f	-0.3125370890295826
204	0x3ff020dbca61234e	1.0080221085974759
205	0xbfe1583d01bb76bf	-0.5420212777932746
206	0xbfe4c49c056438cb	-0.6490001778891153
207	0x3fe1988c5ede4e90	0.5498716214082879
208	0xbfd2c653c4f146d5	-0.29335493309654953
209	0x3fda2ae2f9ae134a	0.40886759169398046
210	0x3fe08029981a178c	0.5156448336353932
211	0x3fe819788ddf3b30	0.7531092425286712
212	0x3fd2b01c954fb0a3	0.29199900227718895
213	0x3fa8b5c2604a6c00	0.04826171327041351
214	0xbfee51cb10632c6d	-0.9474845237795201
215	0xbfe43c90b47e8fc7	-0.6323932194977652
216	0xbfd123b4efb3eec9	-0.26780436905367516
217	0xbfd63f3e6a555c83	-0.3476100958263901
218	0xbfbd79c336f0437c	-0.11513919917366694
219	0xbffa50a2f11ab752	-1.64468664342299
220	0x3fe092f2cddc1d1c	0.5179380436610788
221	0xbfd46ed3505e9271	-0.31926424835754746
222	0xbfc5f68fcb75fadc	-0.1715869658910013
223	0xbfb6c62e6c94b790	-0.08896150732900154
224	0x3fc507e01bb0e13e	0.1643028388223317
225	0x3fd3d11c93c8c99b	0.30963816101134406
226	0xbfb27f4ccb7bdf68	-0.07225494354122264
227	0xbfe58397c0a20fe9	-0.6723135721554147
228	0x3fcce607acc3dce2	0.22576995788379067
229	0x3fd452333f65dbeb	0.31751710120391746
230	0x3fdaa687dd9dadbc	0.4164142288415993
231	0xbfe8325264316619	-0.7561428028959113
232	0x3fd5cfaef506ab75	0.3408009903748089
233	0xbfd7b9016d554421	-0.3706668441491861
234	0xbf9ee92bb9e582fb	-0.030186351033424135
235	0x3fe64cc0869b5717	0.6968691472090737
236	0x3fc1ee4a671b59c2	0.14008455309403983
237	0xbff0f7cebdb5c4d2	-1.0604998980091307
238	0x3fdfc6b0700f99ef	0.49650202697230744
239	0xbfd6b78b207a39a6	-0.35495260402322015
240	0xbfb497a58a0b4c64	-0.0804389440557301
241	0x3fe70e9a5b4430cd	0.720532587294224
242	0xbfd821d81ba52bcb	-0.3770656843159343
243	0xbfb71b39ecab20ec	-0.09025918987311216
244	0x3fc8cc3bf135f6aa	0.19373273160811283
245	0xbfd308c2ad13f8a6	-0.2974096956458062
246	0xbff266421c7efb02	-1.1499653924108206
247	0xbfe07d6e27c8753c	-0.5153113152515867
248	0xbfd49fa003bc1a35	-0.3222427402946864
249	0x3fe2bd1849d4ae16	0.5855828706748436
250	0xbfd703e3bca4273a	-0.35961240217203605
251	0x3fd0ab153d55a8e2	0.26044207563121635
252	0x3fdf46f6d1f395ae	0.488706307440533
253	0x3fda149e2fdb7b55	0.40750841783112907
254	0xbfd1a885ea621615	-0.2759108342073387
255	0xbfe60f160d4d3cab	-0.6893415698813404
